best_model.pth (torch, 337897 bytes, 13 tensors)

lstm.weight_ih_l0 f4 [256, 1]
000000 b3 35 0d bf e9 5c 07 bf 8a d6 80 3e 67 fb eb 3e
       -0.55160064 -0.52876145 0.2516368 0.46090242
000010 65 6b 1f bf 0e 41 a3 3d 0e e9 b0 bf 26 25 2c 3f
       -0.62273246 0.079713926 -1.3821123 0.67244184
000020 d9 e7 be bd e5 00 4c 3f 11 1c e7 be 96 b9 44 be
       -0.09321565 0.79688865 -0.451386 -0.1921142
000030 39 8f c8 be c1 e3 75 bf 22 e1 23 bf 24 07 af bf
       -0.3917177 -0.9605065 -0.640154 -1.3674054
000040 33 5f 16 bf 1b 28 80 bf 9d a6 86 bf 64 0e d7 3d
       -0.5873901 -1.0012239 -1.0519596 0.10500792
000050 75 26 7b be a8 24 99 bf b7 e6 80 bd c6 dc c1 c0
       -0.24526389 -1.1964312 -0.06294005 -6.0582
000060 2e d2 f0 be 95 7a 02 bf 07 56 05 bd 83 f8 03 3b
       -0.47035354 -0.50968295 -0.032552745 0.0020137138
000070 c9 1d 0d 3e 52 7f ba 3d e3 e7 bc 3e 32 89 95 bf
       0.13780893 0.09106316 0.36895666 -1.1682494
000080 af a8 90 3c f0 ed 71 bf 73 43 10 bf 2e 8a ac bf
       0.01765856 -0.9450369 -0.5635292 -1.3479669
000090 cc b7 32 c0 f3 11 af 3f d1 fe 34 bf 95 02 6b bf
       -2.792468 1.3677353 -0.7070132 -0.91800815
0000a0 63 e9 e2 3e 4c ad 16 3b 0c fc d8 bf 46 b3 87 be
       0.44318685 0.0022991477 -1.6951919 -0.26503962
0000b0 2f 19 3d be 9d d5 46 bf 69 0e 63 3e d1 f6 d0 be
       -0.18466638 -0.776697 0.22173466 -0.40813306
0000c0 26 81 cb 3d e6 80 54 c0 d6 57 cf 3e 64 71 11 bc
       0.099367425 -3.3203673 0.404967 -0.008877132
0000d0 aa 37 39 bf d4 32 bb be 69 ca bd 3d c0 f6 01 bf
       -0.7235056 -0.36562216 0.09267122 -0.50767136
0000e0 85 58 91 be 2b 2d 37 bf e7 57 ab bf 7b 43 9d 3d
       -0.28387848 -0.71553296 -1.3386201 0.076788865
0000f0 af 64 80 bf 43 d6 fe be c8 4d 30 bf d7 65 2a 3f
       -1.0030726 -0.49772844 -0.68868685 0.66561645
000100 4b 9e 85 3f 24 32 03 40 a9 77 b6 3f d3 d4 84 3e
       1.0438932 2.0499353 1.4255267 0.25943622
000110 d7 f2 86 bf 2a 75 11 3f 5a 94 54 bf 50 fe a5 3f
       -1.0542859 0.56819403 -0.83038867 1.2968235
000120 f8 4f f4 3f 3f a1 c8 3e 44 57 7d 3c 12 d1 2c 3f
       1.9086905 0.3918552 0.0154627 0.67506516
000130 57 fe 4a be f6 63 ff bf ac b6 b0 3e 96 07 0e 3e
       -0.19823585 -1.9952381 0.34514368 0.13870081
000140 8a b6 48 be b4 5f 3d 3f b6 61 68 bf 5b 69 24 3f
       -0.19600883 0.73974156 -0.90774095 0.6422326
000150 10 cc 15 3c 01 ba 0e bf 81 26 09 3f b2 52 e4 c0
       0.009142891 -0.5575257 0.5357438 -7.1350946
000160 51 29 87 3f 74 46 84 3d 94 54 6b 3e 0f 7e 0d 3b
       1.0559484 0.0645875 0.22981483 0.002159003
000170 3f c1 ba 3e 72 ab cc 3e bf b0 01 3f 12 89 8e 3f
       0.3647556 0.39974552 0.5066032 1.113558
000180 c1 94 b1 3e 1a 17 7c be f7 3f 6e 3e 45 ad 89 bf
       0.34683803 -0.24618188 0.23266588 -1.0756003
000190 6b 99 0f c0 0a b2 c5 3e 8b eb 22 3e d9 88 67 bf
       -2.243739 0.38612396 0.15910165 -0.9044319
0001a0 d0 33 b6 3f 26 7f f1 3e cf 78 6d c0 08 91 38 3f
       1.4234562 0.4716732 -3.7104986 0.720963
0001b0 4b da ad 3e ea 04 13 c0 11 cb 83 3f 7e ab f8 3f
       0.33955607 -2.297175 1.0296346 1.9427335
0001c0 cd 0c 02 40 21 74 14 bf 0f 67 00 3d 6a 32 14 3f
       2.0320313 -0.579897 0.031348284 0.57889426
0001d0 83 dc e5 bd 9a 8e 40 3f 5c fc fb 3e 28 cd 5f 3f
       -0.112237 0.7521759 0.49215972 0.8742242
0001e0 e7 c8 be be ff a9 23 c0 10 d0 3f c0 b1 ef 98 bf
       -0.3726265 -2.5572507 -2.9970741 -1.1948148
0001f0 a0 29 76 bd 0b 8a 23 3e 9f af 16 bc ad 85 35 3f
       -0.06009829 0.15970628 -0.009197145 0.709071
000200 eb 3b f2 3c db 05 6f c0 a7 38 ed 3e 5c 29 6f bf
       0.029569587 -3.7347324 0.46332285 -0.93422484
000210 7c 25 f4 3e 3f 48 69 3f fa 18 d2 bf 63 de a4 3f
       0.47684848 0.91125864 -1.6413872 1.2880367
000220 9f ac 22 3e 65 86 cd 3f 9e 26 34 3f de 00 fc 3e
       0.15886162 1.6056639 0.70371425 0.49219412
000230 6d 62 84 3d b4 49 18 bf c9 e9 c8 be 33 3f 45 3e
       0.06464086 -0.5948746 -0.39240864 0.1926239
000240 d3 6d a2 bf dc 40 95 3f aa 32 83 bf 67 ca 46 bf
       -1.2689766 1.1660419 -1.0249836 -0.7765259
000250 42 6f 95 be 40 cb bf 3c 82 ff a4 bf f4 51 2c c0
       -0.29186445 0.023412347 -1.2890475 -2.692502
000260 5c e1 13 bf 49 6e 1f 3f f0 16 14 40 b1 04 bc 3e
       -0.57765746 0.62277657 2.3139 0.3672233
000270 eb 61 69 be 97 71 25 bf 6f e8 9e 3f b2 ec 18 be
       -0.22791259 -0.6462645 1.2414683 -0.14934042
000280 d9 da 6a bf 66 a5 fc 3e be 7f 8d be ea 15 fc bf
       -0.91740185 0.4934494 -0.27636522 -1.9694188
000290 e4 6a 0f 40 ea de 41 3f 7e 0c 3f bd 2c 02 c3 3e
       2.240899 0.75730765 -0.046642773 0.38087595
0002a0 af de ed 3f cf 80 6b 3f 76 da 18 c0 b2 22 d6 be
       1.8583583 0.9199342 -2.3883338 -0.41823345
0002b0 87 08 2b 3f 04 39 8d 3f d5 4f 33 bd 60 26 8c 40
       0.66809887 1.1033025 -0.043777306 4.3796844
0002c0 1a 10 35 40 3c 89 74 3f 7d 98 93 bf 57 67 59 bf
       2.8291078 0.95521903 -1.1530911 -0.8492331
0002d0 46 b3 1f be fe b6 f2 3d 98 7b d0 3f 3e 61 b0 be
       -0.15595731 0.11851309 1.6287718 -0.3444919
0002e0 8d f9 69 3f 5a 22 05 c0 81 ff c9 bf e1 ab 12 3c
       0.9139641 -2.0802217 -1.5781099 0.008952112
0002f0 c1 73 f7 be b4 7a 44 bf ec 69 b1 3d 8f 04 9e bf
       -0.483305 -0.7674973 0.08662781 -1.2345141
000300 c5 ae a7 3e a1 be 7f 3f 33 0e 30 be 11 b7 0a 3f
       0.32750526 0.9990025 -0.17192917 0.5418559
000310 6a e7 4f bf d2 89 af 3e 34 ab 6e bf e2 bc 4f 3f
       -0.81212485 0.34284836 -0.93229985 0.8114759
000320 f2 6a 87 3e 0b 29 5f 3f ca b0 d2 3d da 14 8b be
       0.2644878 0.87172 0.10287626 -0.27164346
000330 a7 2e 1c bf d9 8a b5 bf 31 50 c5 be 29 11 b9 bf
       -0.61008686 -1.4182998 -0.38537744 -1.4458362
000340 c6 97 37 bf 9d 0e 14 3f 19 0a ae bf 2a 99 55 3e
       -0.7171596 0.578348 -1.3596832 0.20859209
000350 b1 d1 1b 3e 88 cd c9 be c9 75 02 3f a6 81 d1 c0
       0.1521671 -0.3941462 0.50960976 -6.547076
000360 e8 75 84 bd 38 69 77 bf 98 8a ca 3e 04 d2 47 3f
       -0.06467801 -0.96644926 0.39558864 0.78054833
000370 13 02 14 3e db 76 e7 3e 51 34 64 3f 38 db 5c bd
       0.14453916 0.45207867 0.8914233 -0.05392
000380 4b 72 89 3e ed ae 58 bf 3b 38 1f bf 99 d1 94 bf
       0.2684501 -0.84641916 -0.62195176 -1.1626464
000390 e3 92 3b c0 18 80 91 3f c4 2d dd 3d 6c 84 a0 bf
       -2.9308403 1.1367216 0.10799745 -1.2540412
0003a0 4b b2 41 3f 1e 18 00 3f 50 0c c7 bf 9f d6 83 3e
       0.7566268 0.500368 -1.5550632 0.2574968
0003b0 f2 dc 87 3e 81 00 90 bf 8e 31 a5 3f ca b5 63 3f
       0.26535755 -1.1250154 1.2905748 0.88949263
0003c0 f6 23 18 3f 9f 40 24 bf 56 c5 b3 3e f5 20 48 3e
       0.5942987 -0.64161104 0.35111493 0.19543822
0003d0 bc 52 78 bf 7d 33 66 3f f0 1d a3 3e 10 0b 7f 3d
       -0.9700124 0.89922315 0.31858778 0.06226641
0003e0 61 eb ee be 34 4a 2f bf 35 a0 c3 bf 36 85 04 3e
       -0.46663955 -0.684726 -1.5283266 0.12941441
0003f0 78 1c 9b bf 78 ac a4 be 68 67 3b bf 34 1e ce 3f
       -1.2118063 -0.32162833 -0.7320466 1.6102967

lstm.weight_hh_l0 f4 [256, 64]
000000 b0 d9 a9 3f 62 7e be 3e 54 c6 a0 3d 76 db 93 3e
       1.3269558 0.37205797 0.07850328 0.28878373
000010 25 14 fa 3d 69 4e 91 3e fd 5e b0 be 06 0d 3f bd
       0.122108735 0.28380135 -0.3444747 -0.04664328
000020 9b 07 9b 3e b5 8a c0 3e b5 d1 48 bd 89 e0 8e 3e
       0.3027924 0.37605825 -0.049028117 0.27905682
000030 38 cd 52 bd 77 7f 00 be 07 0b 0e 3f f7 0b 50 be
       -0.051465243 -0.12548624 0.55485576 -0.20317064
000040 5f 26 a4 3d 77 4a b7 3f 38 d2 28 bf 5a c2 98 3e
       0.08015131 1.43196 -0.6594577 0.29835778
000050 df f4 86 3e d0 00 08 be 9a 82 d8 be 1c 88 6e 3c
       0.26358697 -0.1328156 -0.4228714 0.014558818
000060 ba 02 d1 bd d5 dc 67 be 8f 5c 8e be c2 95 77 3f
       -0.10205598 -0.22642834 -0.27804992 0.9671289
000070 f4 e3 fc 3e ef d3 ad be 81 3a 45 3f f2 e7 15 be
       0.49392664 -0.33950755 0.77042395 -0.14639261
000080 0d f0 63 3e fe 3c 70 be 52 0f 27 bf 12 1a 12 bd
       0.22259541 -0.23460767 -0.6525775 -0.035669394
000090 05 1b 30 bf d0 d7 77 bf 55 ec 97 be 8d 00 db be
       -0.6879123 -0.9681368 -0.29672495 -0.42773858
0000a0 ec ad 3c 3d 16 8e 42 be 75 65 b5 3e f0 87 46 3b
       0.046064302 -0.18999514 0.35428968 0.0030293427
0000b0 2a 12 83 be c2 3a d0 be c3 4b 09 be a6 f9 c0 be
       -0.25599796 -0.4066983 -0.13407807 -0.37690467
0000c0 ee 57 85 3d 3b a7 0d 3f ea f0 38 be 16 2d 82 3e
       0.06510912 0.553333 -0.18060651 0.25425023
0000d0 3b ed 33 3e 9d d8 90 bb 0a 4e ae be 23 b7 24 3e
       0.17570965 -0.0044203536 -0.34043914 0.16085486
0000e0 9d 50 80 be 75 85 2d 3f 7c 43 f2 3e 9a 44 15 3e
       -0.25061503 0.67781764 0.47317111 0.1457695
0000f0 13 e3 38 3c dc 04 19 be 36 39 38 3e 6c 69 68 3e
       0.011284607 -0.1494326 0.17990574 0.22696465
000100 d5 71 2e 3e a5 12 00 bf 91 0b 89 bf b9 da 03 3e
       0.17035611 -0.5002845 -1.0706655 0.12876405
000110 b8 fe e6 bd 3f 59 9f be 34 b2 b0 bd 7e c2 67 3f
       -0.112790525 -0.31122777 -0.086277395 0.90531147
000120 87 f8 55 bb 55 39 7a bf 69 c1 94 3e 6a 91 62 3f
       -0.0032649355 -0.9774373 0.2905381 0.88503134
000130 a0 1d ef be c7 01 dd 3d da 7a 68 bf 12 ed 0a 3e
       -0.4670229 0.107913546 -0.90812457 0.13566998
000140 70 e0 2e 3e 14 f0 35 3e de 29 ba bd fd ab 9f be
       0.17077804 0.17767364 -0.09090017 -0.31185904
000150 02 a2 74 3c b5 28 d6 be 9d 35 be be 9e 40 a7 3f
       0.014931204 -0.41827932 -0.3715028 1.3066595
000160 e2 2e 84 3f 88 4f 48 3e 5e be a3 3e 80 9c 44 3f
       1.0326807 0.19561589 0.31981176 0.768013
000170 d9 e3 3d bf 79 7c 3b bf de d6 0f bf 62 70 cd bd
       -0.7417579 -0.73236805 -0.56187236 -0.10031201
000180 90 78 f9 bf 73 3d 26 3f f7 8c 34 3e 11 ce 0f 3e
       -1.9489918 0.64937514 0.17631899 0.14043452
000190 86 d5 67 bf c0 be 0f 3f 47 65 f9 3e 45 84 36 3f
       -0.90560186 0.56150436 0.4871008 0.7129558
0001a0 5c 3f 32 3f c4 01 65 3f 1b 5f 7a 3f fb 47 c2 be
       0.6962793 0.8945582 0.9780137 -0.37945542
0001b0 22 17 1b bf 16 1d b8 3e c9 db 5d bb 29 fb b3 be
       -0.6058217 0.3595969 -0.0033852926 -0.35152557
0001c0 b2 38 0d be b3 d6 b7 bf ca c3 8f 3f 8d 10 e5 be
       -0.13791159 -1.4362396 1.1231625 -0.4473919
0001d0 fb 3c 17 bf b7 25 10 bd bb f4 51 be a7 09 7e bf
       -0.59077424 -0.035192218 -0.20503514 -0.9923348
0001e0 92 8a 07 3f f6 c2 73 3e ce d8 9b bd a2 9c 03 c0
       0.52945817 0.2380484 -0.076097116 -2.056435
0001f0 2e da 6f 3e d2 d4 e1 be 2f f8 fb be 62 59 99 bc
       0.23423073 -0.44107682 -0.49212787 -0.018719379
000200 27 48 cc 3e 23 cc 02 3f 79 85 04 3f f5 22 69 be
       0.39898798 0.5109274 0.51766163 -0.22767241
000210 c6 ea a7 be 61 af 61 3e c4 8f 96 3e b4 e2 66 3e
       -0.32796305 0.22039558 0.2940656 0.22547418
000220 7a c3 a5 be 72 5d 39 3f c8 e6 d4 3b 58 2a 96 bd
       -0.323757 0.7240821 0.006497238 -0.07332295
000230 14 2b 19 3e bf 80 b1 bd 21 a8 9a bd b2 9e b7 bf
       0.14957839 -0.086671345 -0.07551599 -1.4345305
000240 54 35 d9 3e d2 7f de 3e 77 6a ab be 08 b7 56 be
       0.424235 0.43456894 -0.33479664 -0.20968258
000250 f8 2b e3 bd f3 41 98 be 85 1e d2 3e 81 6b 92 3e
       -0.11092371 -0.29737815 0.4103891 0.28597644
000260 3d ac 07 bf 06 44 e2 be c9 fc 5b 3e 60 d7 9a 3e
       -0.5299719 -0.44192523 0.21483149 0.30242443
000270 7a 7b 4a 3e 82 9a a1 be 98 48 d6 3e 79 fb 0d 3e
       0.19773665 -0.31563193 0.4185226 0.1386546
000280 6a 1a 4b be 53 7d 10 3f b6 8a 84 bf 76 60 56 be
       -0.19834295 0.5644123 -1.0354831 -0.20935234
000290 51 f4 90 bf bf 30 23 bf e2 df da bf 61 9d 3b 3f
       -1.132456 -0.63746256 -1.7099574 0.73287016
0002a0 57 88 35 3f 23 a5 06 be 87 13 3d bf 49 7d 00 be
       0.70911163 -0.13148932 -0.7385792 -0.12547792
0002b0 5e 76 3d 3f 3c 66 0d 3f 6f 93 41 bf 1a 18 89 be
       0.7400874 0.5523412 -0.7561559 -0.267762
0002c0 b0 d3 9c bd 44 8d 65 3f 1d b5 9f bf d6 eb a0 bd
       -0.07657564 0.8966868 -1.2477146 -0.07857482
0002d0 fe a7 2f 3e 78 68 82 be 26 f8 61 3e f8 85 9c 3f
       0.17153928 -0.25470328 0.22067317 1.2228384
0002e0 a1 08 05 3d b6 e2 38 3e 95 18 47 bd 92 51 f1 3e
       0.032478932 0.18055233 -0.048607428 0.47132546
0002f0 d8 63 a3 3f e6 91 8b 3f 46 99 34 be cd 21 d7 3e
       1.2764845 1.09039 -0.17636594 0.42017975
000300 80 0f 36 3f 7c af 02 be 96 d8 47 3f b4 bd 99 be
       0.711174 -0.12762254 0.7806486 -0.30027544
000310 a3 77 eb be 24 20 d7 3a dc 76 2b 3d a9 01 cc be
       -0.45989713 0.0016412777 0.0418614 -0.39845017
000320 f7 c1 09 bf c4 61 3c be 11 30 0c bf ce c0 87 be
       -0.5381159 -0.1839667 -0.54760844 -0.26514286
000330 d6 2d 88 bc 49 f0 02 3f 1a e6 e1 bd 99 54 e4 bd
       -0.016623419 0.51147896 -0.110302165 -0.11148948
000340 32 00 ac bc d1 18 b1 be fe 8b 10 3f 13 66 f8 3d
       -0.020996187 -0.34589246 0.5646361 0.12128844
000350 47 84 05 bf 50 1e 76 bf 4b 21 12 3e cf 1d e3 be
       -0.52154964 -0.96140003 0.14270513 -0.4435868
000360 82 81 04 bf 28 f6 78 be 79 6c bf 3e dc bb a3 bd
       -0.51760113 -0.24312651 0.37387446 -0.07994816
000370 c2 7a 22 be df 5e 47 3e d7 f0 1c 3e ca 34 57 3f
       -0.15867141 0.19469784 0.15326248 0.84064925
000380 62 cd 03 be c1 22 3c bd 14 71 ad bd fe 79 78 3e
       -0.12871316 -0.04593158 -0.084688336 0.24265286
000390 72 fa 2f 3f 8c 23 8c be ee 6e f1 be 9f df db 3e
       0.68741524 -0.2737087 -0.47154945 0.42944047
0003a0 16 7d 12 bd 42 9f c7 3e de fe 5e 3e d2 28 46 3e
       -0.035763822 0.38988692 0.21776912 0.19351509
0003b0 ef 15 54 3f 6a c5 9c be aa 5f e5 be e7 62 34 3e
       0.8284597 -0.30619365 -0.44799548 0.17615853
0003c0 ed 05 6c 3d 84 9c 1c be 2c 35 b3 3e 05 11 34 be
       0.05762284 -0.15294081 0.35001504 -0.17584617
0003d0 ef 3c ba be 47 b1 8c be ac 34 af bd 25 36 87 be
       -0.36374614 -0.27479002 -0.08554968 -0.26408496
0003e0 10 4d f3 3e cf 3f 88 3e 61 8a 18 3f 4b 93 97 be
       0.47519732 0.26611182 0.5958615 -0.29604563
0003f0 86 ad 05 3e 52 01 54 be 0b c7 00 bd 66 d6 3c be
       0.13054475 -0.20703629 -0.031439822 -0.18441162

lstm.bias_ih_l0 f4 [256]
000000 85 a1 96 bd d9 6a 13 3f 16 16 02 bf 9f 7b a2 bd
       -0.07355026 0.5758491 -0.5081495 -0.07933735
000010 9a f8 22 bf 5a 6b 0d bc 7c 45 93 be 4f 71 97 be
       -0.63660586 -0.008631552 -0.2876395 -0.29578635
000020 48 79 3b be f6 36 e8 bd 5a 05 9e be 83 b5 2e be
       -0.18307984 -0.11338608 -0.30863458 -0.17061429
000030 09 67 43 bf f1 65 5a be bd 07 60 be a3 ac 92 be
       -0.76329094 -0.2132795 -0.21877952 -0.28647336
000040 29 b3 19 bf 14 a3 5a 3a 51 78 d4 3d 81 06 20 be
       -0.60039 0.00083403406 0.10374511 -0.15627481
000050 74 01 0d bf 38 f1 d5 3c 29 90 0a bf 9f c3 1f 3e
       -0.5508034 0.026115999 -0.5412622 0.15601967
000060 b7 8a 9f be c1 02 36 be a2 5c 69 be 36 34 18 bd
       -0.3116052 -0.17774488 -0.22789243 -0.037159167
000070 e3 f7 c9 bd 40 2c 20 bf f9 12 8a be 21 af a0 be
       -0.09861734 -0.6256752 -0.269676 -0.31383613
000080 92 d3 de 3e 78 e6 13 bf 2b cb 40 bf 26 51 eb bc
       0.4352079 -0.5777354 -0.7531001 -0.028725218
000090 e6 93 69 be 11 4d 71 3e 0d bd a2 bd 16 85 f2 be
       -0.22810325 0.23564555 -0.07946215 -0.47367162
0000a0 96 56 c7 3c 8f 1b 39 3d 92 99 45 3e 02 6d 93 bf
       0.02433328 0.045192298 0.19296864 -1.1517642
0000b0 71 79 93 be 30 46 a6 3d be a9 ec be 78 ad b8 3e
       -0.2880359 0.08118856 -0.46223253 0.36069846
0000c0 94 59 67 be 3c a8 4f be c3 63 11 3e 27 32 2a 3d
       -0.22592765 -0.2027902 0.14198212 0.041551735
0000d0 85 e3 6b bf 3e 31 01 be 9f 4d e7 be 95 73 e3 bd
       -0.9214404 -0.1261644 -0.45176408 -0.1110603
0000e0 df 2a 18 be fc b8 cf bd c0 9f 64 3e c6 b5 0d 3f
       -0.14860104 -0.10142705 0.22326565 0.5535549
0000f0 45 f9 76 be 7e 6a 22 be 86 aa 06 bf 4a 43 e4 be
       -0.24118526 -0.15860936 -0.5260395 -0.44582587
000100 9c a5 f6 3e 69 b2 ef bd cd 83 f4 3e 55 94 0e bf
       0.48173225 -0.11703951 0.47756806 -0.55695087
000110 15 f5 cb be 1e 5d 7f 3e c3 de 88 bd 23 61 2a 3e
       -0.3983542 0.24937865 -0.066831134 0.16638617
000120 be 9e f7 3d 6a 25 58 bd 1e d8 24 bd 53 34 47 be
       0.120908245 -0.052770056 -0.040245168 -0.19453554
000130 36 dd f0 be 0d 13 4d bf 42 14 14 be 30 74 23 3e
       -0.4704377 -0.80107194 -0.14460853 0.15962291
000140 1a 47 e9 be c1 1e b8 bd dd 1d 19 be 15 4d 40 3e
       -0.4556206 -0.08990241 -0.14952798 0.18779404
000150 ae b9 f7 be 69 6f d6 3d 13 e8 f7 bd 11 60 63 bd
       -0.4838385 0.104704686 -0.121048115 -0.055511538
000160 51 34 10 be 5f 0a 72 3d a0 a9 e8 be c1 dc 16 bd
       -0.14082457 0.059091922 -0.45441914 -0.03683162
000170 df 31 73 bf 2a e5 cd be 82 a2 18 be fe a5 d0 3e
       -0.9499797 -0.402139 -0.14905742 0.40751642
000180 9c 5f 31 bf 04 44 03 bf c3 19 07 3e b6 00 36 bf
       -0.69286513 -0.5127566 0.13193421 -0.71094835
000190 6d 08 da bd 1e de ee 3e 28 30 cf 3d 66 9e 3f bf
       -0.10646138 0.46653837 0.10116607 -0.7485107
0001a0 c4 bc 16 bf 30 46 84 3e 3b 1b fe be 56 af 6e bd
       -0.58881783 0.258348 -0.4963015 -0.058272682
0001b0 45 8d 7e bd ee 13 8c be 48 2e ed 3e 86 69 1a 3d
       -0.062146444 -0.27358955 0.46324372 0.03769829
0001c0 b3 b8 2f 3c 23 1b 0d be d7 4c 6a 3d ad 49 c1 be
       0.010725188 -0.13779883 0.057202186 -0.37751523
0001d0 11 53 89 be 1a c3 cb 3e d5 61 35 bd f4 51 c2 3e
       -0.26821187 0.39797288 -0.044282753 0.3795315
0001e0 ad f8 c4 be 47 39 8f be cc 6b 66 bf 4e e3 b2 be
       -0.38470975 -0.27973387 -0.90008235 -0.34939045
0001f0 b6 04 c6 3e 24 c7 c3 3e e9 3e c3 be df d4 f3 3d
       0.3867547 0.3823787 -0.38133934 0.11905836
000200 00 fd 8d 3d d1 74 ab 3d f6 a1 2f be 61 d0 01 3d
       0.069330215 0.0837189 -0.17151627 0.031692866
000210 38 12 d6 3c be 78 a2 3d 8e e2 89 bd 54 1d 38 bd
       0.026131734 0.07933186 -0.06732665 -0.044949844
000220 3e 4f b5 3d d5 5f a0 be 19 9c 15 3e 00 7f 21 3e
       0.08853005 -0.31323114 0.14610328 0.15771103
000230 57 7d b1 bd 6b c6 ad 3d 00 2c 6e 3d c2 ec 47 bd
       -0.08666485 0.08485111 0.05814743 -0.048809774
000240 6e 05 ed 3d ba fe 66 be 1d 45 ad 3e 21 13 38 3c
       0.11573301 -0.22558108 0.33841792 0.011235029
000250 57 15 0c 3e 60 af b2 be 50 a8 0b 3d d3 3d f1 3e
       0.13680016 -0.34899426 0.034096062 0.4711748
000260 28 58 86 3e 0b 61 08 be 8e 6b d5 bd 1e 1d 25 3e
       0.26239133 -0.13318269 -0.10420905 0.16124389
000270 2a bd 7a bd 8f 81 6b bd e6 d7 20 be c7 c9 72 bc
       -0.061215557 -0.057496604 -0.15707359 -0.014818615
000280 2e 3a 3e be 8e 27 09 3d 2c 47 73 bd c3 6b 60 3e
       -0.18576881 0.033484988 -0.059394047 0.21916108
000290 ad bb b2 bd 8d 3e 50 3d e4 c8 a0 bd 15 d6 be 3b
       -0.087272026 0.050840903 -0.07850817 0.0058238604
0002a0 c0 2d 1e be d5 ef 0e be c1 94 a9 3e fc bf f6 3d
       -0.1544714 -0.13958676 0.33121303 0.12048337
0002b0 7a 8f ff bd 97 f5 d1 bd d5 fb ba bd 08 28 1f be
       -0.12478538 -0.10251921 -0.091300644 -0.15542614
0002c0 d7 a0 02 be 66 76 bd be 1f 2e 06 3e a3 72 85 3a
       -0.12756668 -0.37004393 0.13103531 0.0010181259
0002d0 d9 87 67 bd 44 96 e6 3c a4 c7 7b be e7 bb 47 3d
       -0.05652604 0.028147824 -0.24587876 0.048763182
0002e0 c7 44 c1 bd 13 49 a9 3e 35 e0 61 3e 50 41 80 be
       -0.09436946 0.33063564 0.22058184 -0.2504983
0002f0 56 7c 8e 3e 09 be 1b bd 6c f9 12 3e 3e 3a 04 3e
       0.27829236 -0.03802303 0.1435296 0.12912843
000300 3c cb f0 3d 88 69 8a 3f 1c e4 db bd cb 92 8b be
       0.11757514 1.0813456 -0.10736868 -0.27260432
000310 65 d7 10 bf 71 2c 90 bd e1 aa 49 be b0 21 6c be
       -0.56578666 -0.070397265 -0.19694091 -0.23059726
000320 65 b8 ed be 61 eb e7 be 80 68 30 bf 51 84 21 3e
       -0.46429744 -0.45296767 -0.68909454 0.15773131
000330 36 99 68 bf 9b 44 61 be a9 0f b9 bd a6 28 55 be
       -0.9085878 -0.21998827 -0.0903619 -0.20816287
000340 1a 1e 0f bf 48 ee 71 3e 3d 48 2f 3e b9 28 ed bd
       -0.55905306 0.23626053 0.171174 -0.11580033
000350 57 f2 86 be d1 6c 46 3e ba 9e e0 be 1a 7e cd 3d
       -0.26356766 0.19377448 -0.438711 0.100338176
000360 89 06 89 3d 5a 2d 66 be 4d ef 81 bb 87 42 92 3e
       0.066906996 -0.22478238 -0.0039652945 0.2856638
000370 32 16 e1 bd e8 4d 47 bf d3 a6 16 bd 35 54 a0 bd
       -0.109905615 -0.7785325 -0.03678019 -0.07828561
000380 de d6 02 3f c9 38 06 bf ca 11 dd be bf 56 59 3e
       0.5110911 -0.524304 -0.43177634 0.21224497
000390 7c 95 ae be 6c 63 2b 3d 8b c6 fa bb d7 a8 9c be
       -0.34098423 0.041842863 -0.0076530627 -0.30597565
0003a0 15 ca f8 3d d5 c4 53 be d7 be 99 3e e2 6e 53 bf
       0.12147919 -0.20680554 0.30028412 -0.8259107
0003b0 a2 ca ff be b7 e8 5b 3e 62 b9 03 bf 72 d2 06 3f
       -0.49959284 0.21475492 -0.51454747 0.52664864
0003c0 ba 61 2c 3e 18 e8 86 3e d8 d5 bb be 28 ad 28 3e
       0.16834155 0.26348948 -0.36686587 0.16472304
0003d0 92 1b 89 bf a8 3d 84 be cc 7c 99 be 7f 11 ee bd
       -1.0711539 -0.2582829 -0.29978025 -0.11624431
0003e0 74 a3 c5 be f9 31 20 bc f4 59 91 3d 63 8e 02 3f
       -0.38601267 -0.009777539 0.07097235 0.50998515
0003f0 fd ac ba be 3d 48 3f bf 94 3f f0 be ab 0d 18 bf
       -0.36460105 -0.747196 -0.46923506 -0.59395856

lstm.bias_hh_l0 f4 [256]
000000 8f e2 b0 bd 14 7c db 3e 1f 5f eb be 66 f1 14 be
       -0.086369626 0.42868102 -0.4597101 -0.14545211
000010 4d c2 40 bf 65 c4 e6 3d 01 35 45 be 76 b2 d9 be
       -0.7529648 0.11267928 -0.192585 -0.42518967
000020 70 f8 b9 be e9 ae ab bd 77 44 cc be e0 98 4f be
       -0.36322355 -0.08382971 -0.39895985 -0.20273161
000030 bc 13 5d bf f6 c1 df bd e2 f6 07 be df 3f 43 be
       -0.8635824 -0.10925667 -0.13277772 -0.19067334
000040 25 6d 1b bf ea 98 ce 3c 7f 84 10 bd 2e d1 a3 be
       -0.60713416 0.0252194 -0.035282608 -0.3199553
000050 b3 84 e0 be 08 05 f8 bc e3 98 17 bf 05 02 80 3d
       -0.4385124 -0.030275837 -0.5921766 0.06250385
000060 34 ab aa be f9 39 39 be ea d7 81 bc cb 07 38 be
       -0.33333743 -0.18088521 -0.015850026 -0.17971723
000070 28 71 63 be 70 1d 14 bf e6 bd 17 be 0f 3f 7c be
       -0.22211134 -0.5785742 -0.14818534 -0.2463343
000080 6e 55 03 3f 94 b5 1a bf 04 05 3d bf d4 d1 d5 bd
       0.5130223 -0.60433316 -0.7383578 -0.10440412
000090 08 a0 e7 bd c1 50 5a 3e ad 69 0c be b3 f8 ee be
       -0.113098204 0.21319868 -0.13712187 -0.46674117
0000a0 20 91 d2 bd 32 f8 76 3b 86 fd 2e 3e 3a 65 9f bf
       -0.10281587 0.0037684557 0.17088899 -1.2452767
0000b0 03 9a a6 be 0a 9d d9 3d fe f3 ea be 68 2c b6 3e
       -0.32539377 0.10625656 -0.45889276 0.35580754
0000c0 c1 a0 f4 bd 41 6c a8 be 27 fa 23 3d a8 23 43 3d
       -0.11944724 -0.3289509 0.040033486 0.047641426
0000d0 c2 be 5f bf 10 07 7b bc 6c 6f 14 bf 9c ea 59 be
       -0.8740045 -0.015321508 -0.57982516 -0.21280903
0000e0 40 94 a1 be af 44 a8 3d 00 40 38 3e 53 8b b9 3e
       -0.31558418 0.08216225 0.17993164 0.36239108
0000f0 83 88 a5 be 4d 21 c2 bd 46 cb e3 be aa 0e dd be
       -0.32330713 -0.09479008 -0.44491023 -0.4317525
000100 6f 43 fd 3e 9c 26 6d be 6a 7e a3 3e 15 da 1e bf
       0.4946551 -0.2315926 0.31932384 -0.62051517
000110 02 b1 cc be 1e dc 81 3e b0 37 3d be 8f 6f 26 3e
       -0.39978796 0.2536325 -0.18478274 0.16253494
000120 cd c2 f3 3d 97 75 4c be d6 29 9a 3d 7c 2b 9c be
       0.1190239 -0.19966732 0.07527511 -0.30501926
000130 c2 e4 e6 be 19 a2 4f bf b1 41 23 3d f0 84 ac 3e
       -0.45096403 -0.81106716 0.03985757 0.33695173
000140 e2 15 ec be 8a a8 11 be 71 f1 de bd d8 03 74 3e
       -0.46110445 -0.14224449 -0.10885895 0.23829591
000150 e2 19 97 be a9 8d b4 3b e5 18 54 be d5 fd 29 bc
       -0.29511935 0.0055100513 -0.20712622 -0.01037546
000160 1f 09 2d be b8 06 59 3d 1d ff c6 be 90 52 ff 3d
       -0.1689801 0.052984923 -0.3886651 0.124669194
000170 ef f0 63 bf 6e ad 08 bf c2 34 1f 3d 12 0a f6 3e
       -0.8903951 -0.5338963 0.038868673 0.48054558
000180 a0 28 2f bf 75 a8 f3 be 06 36 3e bd b5 f4 3f bf
       -0.68421364 -0.4758946 -0.04643824 -0.7498277
000190 d0 46 bc bc c6 ba b3 3e e5 42 41 3e a0 ad 4b bf
       -0.022982985 0.35103434 0.18873174 -0.79561806
0001a0 6a 9f f6 be ed 83 22 3e a3 79 c0 be d7 8b cf bd
       -0.48168498 0.15870638 -0.375928 -0.10134094
0001b0 13 83 80 bc a0 8e c3 be 12 4f d1 3e d1 0e cf bd
       -0.015687501 -0.38194752 0.40880638 -0.10110248
0001c0 f2 4e 84 bd 52 9b a3 be 2f f7 f4 3d d0 ed de be
       -0.0646037 -0.31954437 0.11961209 -0.43540812
0001d0 85 66 58 be 11 92 ef 3e b3 24 9a bd 16 cb b8 3e
       -0.21132858 0.46791127 -0.07526531 0.36092442
0001e0 89 89 cb be d4 19 a6 bd e9 ad 58 bf 45 77 c5 be
       -0.39753368 -0.08110395 -0.84640366 -0.38567558
0001f0 7a a5 ba 3e 82 b9 c6 3e 99 ee ae be 0f 2f 5e 3e
       0.36454374 0.38813406 -0.3416641 0.21697639
000200 83 1a 3e 3c c5 54 1c 3d 80 45 aa be 6d dd d6 3d
       0.011603001 0.03816678 -0.3325615 0.10491452
000210 e3 42 83 3d d3 3c ae 3d 54 20 4e 3d e1 ad 11 be
       0.06409242 0.08507695 0.0503238 -0.14226486
000220 ce d3 b3 3d 71 b2 42 be f3 67 38 bd 82 52 4b 3e
       0.08780633 -0.19013382 -0.04502101 0.19855693
000230 51 91 fe bc b4 1f 15 3e 42 85 9f bb 04 87 04 be
       -0.031075152 0.14562875 -0.0048681805 -0.1294213
000240 24 d6 bb 3d ad ef 99 bd e5 b4 e0 3e af 3a 46 bd
       0.091717035 -0.07516418 0.43888012 -0.04839581
000250 c3 64 b5 3c ba c2 4c be fd 4c 8d 3d 23 9a be 3e
       0.022142773 -0.19996157 0.0689945 0.37226972
000260 fb 96 5b 3e e4 a0 83 be cc a1 8b be af 1d 44 3e
       0.21444313 -0.25708687 -0.2727188 0.19151948
000270 22 f7 de 3c 51 d2 a0 bd 83 5c be bc 86 2e d7 bc
       0.027217451 -0.07852615 -0.023237472 -0.026267301
000280 56 8b 11 be cc f8 8c 3c 9c 66 e8 bd 59 bd c5 3d
       -0.14213309 0.01720848 -0.11347696 0.09655256
000290 4b ee 17 be 0c cd 54 bd e4 e6 4d be cd 5c fb bd
       -0.14836995 -0.05195336 -0.20107609 -0.1227356
0002a0 d8 06 1f bc 66 ef 5f bd b8 93 83 3e ef d7 ce 3c
       -0.0097062215 -0.054671668 0.25698638 0.02524945
0002b0 cd 74 29 be 1d e8 4b be 61 65 fd bd ad 18 28 3d
       -0.16548462 -0.19912763 -0.12372852 0.041039158
0002c0 60 58 3f bc ce 98 08 bf a3 8d 48 3e 24 d2 b7 3c
       -0.011678785 -0.5335816 0.1958528 0.02243907
0002d0 b9 2d e7 3d 07 38 15 bd bd af 8b bd 8e 83 b9 3d
       0.11288018 -0.036430385 -0.06820629 0.09058295
0002e0 58 6e f9 bd a8 32 8b 3e aa 1d ab 3e e3 a0 62 be
       -0.121792495 0.27187085 0.3342107 -0.22131686
0002f0 b1 33 75 3e 41 ec 2c 3e 90 54 eb bc a5 78 e7 bb
       0.239455 0.16886999 -0.028726846 -0.0070639425
000300 24 2f 6a 3e 2b 06 77 3f b5 e3 c7 bd a9 73 9b be
       0.22869545 0.96493787 -0.097602285 -0.3036168
000310 02 09 b7 be 72 33 b7 3d 76 ce 6f be 1d b2 97 be
       -0.3574906 0.08945359 -0.23418602 -0.29628077
000320 0b e3 1e bf 26 df 8f be cb 13 24 bf 3a b1 da 3d
       -0.6206519 -0.28099936 -0.640927 0.106783345
000330 f5 45 45 bf fe 18 f0 bd 5a d6 94 bd 9e c9 22 be
       -0.7705987 -0.11723517 -0.07267447 -0.15897223
000340 f9 1c 40 bf 6c fe a0 3e b2 60 97 3e a3 e1 b6 bd
       -0.7504421 0.31444108 0.2956596 -0.089297555
000350 04 d0 72 be 8d ef 1f bb ce f1 f2 be a8 c3 52 3d
       -0.23712164 -0.0024404258 -0.47450107 0.051456124
000360 25 e0 e3 bd 56 b6 30 bd 43 20 c6 3d af ed 2c 3e
       -0.111267366 -0.04314264 0.09674122 0.16887544
000370 62 dc 52 be 2a 14 0b bf 95 00 7e be cb a9 1b 3e
       -0.20591882 -0.5432764 -0.2480491 0.1520149
000380 42 51 f9 3e 73 c3 f0 be 88 8f f5 be 48 60 f0 3d
       0.48694807 -0.47024116 -0.47961068 0.11737114
000390 2b 40 b8 be d0 76 d7 3d ef 01 f2 bc fe 8d c5 be
       -0.35986456 0.105207086 -0.029541938 -0.38584894
0003a0 c7 7f 08 3e 3e 20 43 be 3e 38 d7 3e b6 ca 39 bf
       0.13329993 -0.19055268 0.42035097 -0.7257494
0003b0 b8 aa 08 bf eb 3e ac 3c 8d 95 cc be a3 d6 fb 3e
       -0.53385496 0.021026095 -0.39957848 0.49187192
0003c0 c4 db 5a 3c a5 66 e0 3d c0 51 d7 be 4d 92 8c 3d
       0.01335806 0.10957078 -0.42054558 0.06863842
0003d0 2b 91 6c bf e1 09 c0 be f2 69 bd be 6b 05 ea bd
       -0.9240901 -0.37507537 -0.36994892 -0.11426815
0003e0 ff a2 fa be e3 45 d3 3a 41 0a c2 3d 21 70 af 3e
       -0.4895248 0.001611885 0.09474612 0.34265235
0003f0 9b b0 11 bf c6 50 6c bf 50 57 d3 be 39 b8 12 bf
       -0.56910104 -0.9231075 -0.41277552 -0.5731235

lstm.weight_ih_l1 f4 [256, 64]
000000 47 2f b6 bb 7c 60 53 3e 43 89 1e bf 4d b2 1b 3e
       -0.005559835 0.20642275 -0.61928195 0.15204735
000010 af 78 a0 be 6d 26 cc 3e cd 30 f4 3e a9 eb 33 3f
       -0.31342074 0.39873067 0.47693482 0.70281464
000020 ec f3 a7 3e 9c fd fa 3e 36 35 9f 3d 92 51 06 3f
       0.32803285 0.49021614 0.07773821 0.52468216
000030 9f 2c 17 bf 15 b9 85 3f 43 48 68 3e 2a 55 54 bf
       -0.5905246 1.0447108 0.22683816 -0.8294245
000040 e2 4d 23 3f 15 b0 86 3f cd 0f e1 bf 20 c4 cd 3e
       0.63790715 1.0522486 -1.7582947 0.40188694
000050 7d 70 9c be 82 bb 93 3d a7 5b 15 be 35 25 cb 3e
       -0.30554572 0.07213499 -0.14585744 0.39676824
000060 d6 57 91 bc a6 18 93 bf 42 e7 66 3e b9 2c d3 be
       -0.017742079 -1.1491897 0.22549155 -0.41245058
000070 bf 8a 99 be 97 d7 ce be 83 94 db 3e d5 ef 3d bf
       -0.29988667 -0.40398857 0.42886743 -0.7419408
000080 c3 21 0b 3f 8e 32 bf be 6f de 08 bf 69 4f c8 3e
       0.5434839 -0.37343258 -0.53464407 0.39123085
000090 9c ff 8d bc bf 81 96 bd ab b5 94 be 58 47 25 bd
       -0.017333798 -0.07348966 -0.29044852 -0.04035124
0000a0 f2 a8 51 3d 9f 06 27 bf be d5 3e 3f d5 37 d5 be
       0.05118651 -0.6524448 0.74544895 -0.4164416
0000b0 6b fd 17 3e dd ab 63 be 91 55 99 be c3 09 07 bf
       0.14842765 -0.2223353 -0.29948094 -0.5274927
0000c0 cb 8e 44 3e 9b b7 be be 19 1e 28 be 00 2c 9b 3e
       0.19195096 -0.37249455 -0.16417731 0.30307007
0000d0 e3 64 60 3f 76 2f 8f 3e a7 f5 37 bd 3c 8b 1b 3f
       0.8765394 0.27965897 -0.044912007 0.6075933
0000e0 45 82 5a bf 53 99 e6 3e ca d3 8c 3f f1 96 d8 bd
       -0.85355026 0.45038852 1.1002133 -0.10575665
0000f0 45 29 39 3f 1d 3f 9c 3e 2e 79 3b bd 54 33 c9 3e
       0.723286 0.30516902 -0.045769863 0.39296973
000100 f8 72 18 be d8 fb c9 3c 3c fa 87 be 99 3d ea 3d
       -0.14887607 0.024656221 -0.265581 0.1143753
000110 e1 32 2b 3e 0c 63 81 bd 0d e5 45 bd e2 8d a2 be
       0.16718628 -0.0631772 -0.048314143 -0.31748873
000120 9d 8a 34 3d 83 76 4d bf 75 ac b5 3e ed 54 c1 3d
       0.044077504 -0.8025896 0.35483137 0.094400264
000130 a9 e3 88 bf 8f f6 50 3e f3 67 6b 3e da 0e 3c 3f
       -1.0694476 0.20406555 0.22988872 0.7346016
000140 df 5a 47 3f 08 c9 5f bc 59 9f 25 be 40 8c 74 3f
       0.77873033 -0.013658769 -0.16174068 0.95526505
000150 29 2b df 3e c4 28 ac 3e 1f 85 95 be 9b 3c 23 be
       0.43587616 0.33624852 -0.29203126 -0.15941088
000160 1f a6 9b 3e c4 68 b6 bd 67 2a 4c 3f 21 b7 b3 be
       0.30400178 -0.08906701 0.797522 -0.35100654
000170 59 a5 8d 3d bd bb de be 1a 24 e2 be 55 60 70 3e
       0.06916303 -0.43502608 -0.44168168 0.23474248
000180 ed 75 85 3e 33 f0 87 bd cd b2 bd 3e d4 d2 ba 3e
       0.26066533 -0.06637611 0.37050477 0.36488974
000190 8b 60 14 bf 7e 1e fc be 35 77 20 3f 8a 50 a6 be
       -0.5795981 -0.49242014 0.62681895 -0.3248332
0001a0 33 aa be 3e f8 99 14 3d 56 6b 2f 3f f8 5d 82 be
       0.37239227 0.03627965 0.68523157 -0.25462317
0001b0 71 d0 2b bf af 96 be be 10 9c dd 3f de 87 56 be
       -0.6711493 -0.37224337 1.7313251 -0.20950267
0001c0 c6 d1 93 3e b5 82 9c be 28 93 26 3f c9 70 02 be
       0.28870982 -0.30568472 0.6506829 -0.12738337
0001d0 c3 78 5a be 58 8f af 3f 41 11 43 3e 46 59 94 be
       -0.2133513 1.371562 0.1904955 -0.2897436
0001e0 1b 42 8f bd 3f c4 e7 bd 6f 75 1e 3f 6f 5c 05 3f
       -0.069950305 -0.11316728 0.6189794 0.5209417
0001f0 e3 2d 32 3e 70 f2 73 bf a5 7c d1 3e de a1 0e 3e
       0.17400317 -0.95291805 0.4091541 0.13928935
000200 87 f8 77 be 41 fd 62 3e 7a a3 04 3f 54 c2 9e 3e
       -0.242159 0.22166921 0.51811945 0.31007636
000210 48 21 9e be a7 a8 e9 bd c0 91 f6 3e 44 ca 8a be
       -0.30884767 -0.11409121 0.48158073 -0.2710744
000220 ba ec 89 be 57 54 05 be ba de 87 3c 0e e4 21 bf
       -0.2693842 -0.13020454 0.016585696 -0.6323861
000230 70 4d f8 3e 7a da 03 bf b6 bd fc 3d 4d 63 6e be
       0.4849658 -0.51505244 0.12340872 -0.23280068
000240 4b 02 12 bd 67 ef ef be 5a 7b 73 3d fd 93 0c be
       -0.035646718 -0.46862337 0.05944381 -0.13728328
000250 c3 77 a6 be 8b cc 11 3e ef 16 b7 be 00 62 76 be
       -0.32513246 0.14238183 -0.35759684 -0.24060822
000260 44 ad f9 be 0c 81 3f be d8 95 0e bf b0 41 4c 3f
       -0.48765004 -0.18701571 -0.55697393 0.7978773
000270 a8 e0 e3 3e 3f be f2 3e e3 5b 00 be bf 0f 24 3e
       0.44507337 0.4741077 -0.12535052 0.16021632
000280 e3 21 a0 be 6f 54 0e be 88 85 18 be 68 ee e1 be
       -0.31275854 -0.13899396 -0.14894688 -0.44127202
000290 a4 84 97 3d e8 e1 8d bc 73 77 e9 3d 51 4b 01 3f
       0.07398346 -0.017319635 0.11399736 0.5050555
0002a0 72 ba ce be 4f 32 83 be 0c ce 17 bc ea c5 3c 3e
       -0.4037662 -0.2562432 -0.009265434 0.18434873
0002b0 3e 3f 8d be 89 37 51 3f 30 42 3a 3e ac 00 e0 bd
       -0.27587312 0.81725365 0.18189311 -0.10937628
0002c0 cc f2 d8 bd f9 ef 81 be c3 cc 78 3e 63 2e 7a bf
       -0.10593185 -0.25378397 0.2429686 -0.9772703
0002d0 c3 d7 89 3d 13 15 f2 3d 74 94 50 3e 46 d3 0a bd
       0.067306064 0.11820426 0.2036913 -0.033892892
0002e0 9e 61 56 be fb 6e a5 3d b9 8b 59 bd 21 51 33 bd
       -0.20935676 0.080778085 -0.053111766 -0.043778542
0002f0 db ac b5 3d 95 46 52 3e cf 02 44 bd 51 f0 ba 3e
       0.0887086 0.20534737 -0.04785424 0.36511472
000300 a5 8f eb be c1 18 1b 3f 1e fe 48 bf 41 36 d6 3d
       -0.4600803 0.60584646 -0.7851275 0.10459567
000310 53 a0 05 3e 12 22 a7 3e 01 de ed 3d cb f8 a4 3d
       0.1304944 0.3264318 0.116146095 0.08055266
000320 86 60 d3 3e 23 69 70 3d 84 f6 e3 3d 2a fe 0c bd
       0.4128458 0.058694016 0.111310035 -0.034422077
000330 4a 99 5c be ca 38 c9 bd 6a 5b a7 3e 26 ea 0f bd
       -0.2154285 -0.09825285 0.3268693 -0.03513541
000340 b2 d8 3b 3f a1 14 a4 3f ba 05 ef bf 7d 00 bb 3e
       0.73377526 1.2818795 -1.8673623 0.3652381
000350 59 93 0c 3e c0 6b 93 3e 50 5f 1e 3e c5 e8 9f bd
       0.13728084 0.28793144 0.15466046 -0.07808069
000360 b4 01 5b 3d ba 7d 8a bf c9 4d e9 bd 83 ff 8d be
       0.05346842 -1.0819619 -0.113917895 -0.27734002
000370 d1 e2 63 3e bd 31 19 3e 07 99 f4 3d 3d 0b f5 be
       0.22254492 0.1496038 0.1194325 -0.47860137
000380 a8 b0 9c 3e 09 26 9c 3d 65 b1 d6 bd ef 52 46 3f
       0.30603528 0.07624442 -0.10483054 0.77470297
000390 bb 26 f7 be a1 3b 74 be 22 08 d6 3d 56 6f d7 bd
       -0.48271737 -0.23850872 0.1045077 -0.105192825
0003a0 90 b4 13 be e9 02 68 bf 86 08 d1 3e 19 a7 e7 bd
       -0.14424348 -0.9062944 0.40826815 -0.11311168
0003b0 7a 76 52 be e9 4e 7e bf c4 d7 fc 3c a7 77 ba bf
       -0.20553008 -0.9933916 0.030864604 -1.4567765
0003c0 9d 1b 68 be 15 d3 92 be 65 9c e3 bd bb c1 45 bf
       -0.22666784 -0.28676668 -0.11113814 -0.77248734
0003d0 eb c2 fe 3e c4 85 03 3e 9d ae 77 3d 3f 50 f7 3e
       0.49758086 0.12843996 0.06046926 0.4830341
0003e0 e1 90 1d bf 8a 6b 95 3e e7 d4 4d 3f a2 a6 43 3f
       -0.6154919 0.29183608 0.8040299 0.76426136
0003f0 3d a3 2d 3f 50 eb 46 3e c7 46 af 3c 86 bf d3 3e
       0.67827207 0.19425702 0.021396054 0.41357058

lstm.weight_hh_l1 f4 [256, 64]
000000 c7 04 92 3d bd e8 b0 be ae 1f d6 be 7a a9 87 be
       0.071298175 -0.34552565 -0.41821045 -0.26496488
000010 66 6e a5 3e da 1f c3 3e 54 ce 88 3d 46 fd 90 3f
       0.3231079 0.38110238 0.06679979 1.1327293
000020 58 29 a0 bd d4 aa c0 bd c0 27 20 3e b0 75 52 3f
       -0.07820386 -0.09407583 0.15640163 0.82210827
000030 44 b2 9b 3e 39 3c 50 3e 79 5b d4 be 49 d5 be 3d
       0.30409443 0.20335473 -0.41476038 0.09318025
000040 84 f8 2c 3d c0 16 bd be a5 de 4b 3e 93 73 d0 3e
       0.04222919 -0.3693142 0.19909151 0.40713176
000050 1b 1f 2d bf 38 f1 17 3f a9 c2 1e 3f 7d e8 04 be
       -0.6762559 0.59352446 0.6201578 -0.12979312
000060 3a 25 52 be 0d db 73 bc 51 96 b5 3e c0 5e b7 be
       -0.20522013 -0.014883769 0.35466245 -0.35814476
000070 4c 63 30 3f 2f 24 90 3e eb 9f fa 3e 93 7b c7 3e
       0.68901515 0.28152606 0.48950133 0.38961467
000080 43 79 9b 3d ea 77 07 be 08 b7 a0 3d bc 91 3f be
       0.07591488 -0.13229337 0.078474104 -0.18707937
000090 c3 0f ac 3d 35 7a 5a 3e 02 82 31 3f 1d af 92 bd
       0.08401444 0.21335681 0.69339 -0.071623065
0000a0 74 6e 8a 3d c0 c3 cc be 97 81 df 3e b3 34 c2 3e
       0.067593485 -0.39993095 0.43653557 0.3793083
0000b0 09 94 64 bd 55 09 46 bf f3 c7 56 be 8d 80 9b bc
       -0.05580524 -0.7735799 -0.20974712 -0.018982196
0000c0 ac a0 43 bf 75 ec f0 be 17 fa 8b bd 42 d1 9e bf
       -0.7641704 -0.47055402 -0.0683481 -1.240761
0000d0 04 0c 07 3e 6b 8c d5 3e 0e 2a 85 bf 18 1e 3d 3f
       0.13188177 0.41708693 -1.0403459 0.73874044
0000e0 c7 e6 ca 3d 08 30 43 3d 28 5e 9e be c5 58 4f bf
       0.099072985 0.047653228 -0.3093121 -0.80994827
0000f0 f1 40 ef 3d 46 63 84 be fc 9a 96 be 7b 51 d9 3c
       0.116823085 -0.2585699 -0.2941512 0.02652811
000100 51 ed 1a 3d 14 c9 f0 3d ad c6 98 3e 7a 7a bc 3e
       0.03782398 0.117571026 0.29839078 0.36812192
000110 0e a5 5b 3c 4c 7b 6f 3d cf 1f 30 be a2 6e 1c 3e
       0.013406051 0.058467194 -0.17199634 0.15276578
000120 f8 01 31 be 03 bb 03 bf 19 8d 97 3e f5 3e a9 3e
       -0.17285907 -0.5145723 0.29599836 0.33055845
000130 7c c8 52 be f7 ed 5f bf d8 66 2e 3e 7f 75 36 3c
       -0.20584291 -0.8747248 0.1703142 0.011136412
000140 5c f1 cb 3e 8f ed b0 be a2 13 39 bf 3e 97 be be
       0.3983258 -0.34556243 -0.7229558 -0.37224764
000150 21 ca 2b 3e a7 93 46 3d 3b fb 9f be ca f7 df 3e
       0.16776325 0.048480656 -0.3124636 0.43743736
000160 50 ab 06 be 2a 2c e7 3e 0c 58 20 be 5b 11 3a 3e
       -0.13151288 0.45150882 -0.15658587 0.18170683
000170 44 65 3f 3e c0 fe 8e 3e 8a 98 cb 3e eb 81 2d 3f
       0.18690974 0.27928734 0.39764816 0.67776364
000180 30 26 5d 3d a5 04 0c 3f a6 e4 11 3f 1b 54 18 bf
       0.053991497 0.54694587 0.56989515 -0.59503335
000190 e6 92 21 be 85 df 78 be ae f3 07 be 7d dd ac 3e
       -0.15778694 -0.24304016 -0.1327655 0.33762732
0001a0 76 68 fd bc a0 16 04 3f 33 08 33 be d2 5f 9c be
       -0.0309336 0.51597023 -0.17483597 -0.30541855
0001b0 88 83 f4 be 60 62 01 3f 7e 3c 15 bf 85 70 0e bf
       -0.477566 0.50540733 -0.5829543 -0.5564044
0001c0 09 59 7c be ac 7d af bd 09 31 9c bd 6b 97 5c 3e
       -0.24643339 -0.08568892 -0.0762654 0.21542136
0001d0 3b 44 40 3d 7d d7 8a be f0 75 ba be 8b 15 f4 bb
       0.04694007 -0.2711753 -0.36418104 -0.007448857
0001e0 96 9e dd be 08 7d e8 be 4f c1 23 bf 45 47 8f 3e
       -0.43285054 -0.4540789 -0.6396684 0.27984062
0001f0 f2 c7 bd 3e fe 14 03 bf 7d db 87 bc 68 f8 2b 3e
       0.3706661 -0.51203907 -0.016584152 0.16793978
000200 59 08 b4 3e 2e fa 4e bb bd d5 91 be 17 6e fa bc
       0.3516262 -0.0031582224 -0.28483382 -0.030570073
000210 d9 99 0e 3f 21 15 ae be e4 6b 89 3e 55 6f c4 be
       0.557035 -0.34000495 0.26840127 -0.3836619
000220 71 51 a8 be b1 e7 09 3f ec 16 a5 3d 68 2b d8 be
       -0.32874635 0.5386916 0.080610126 -0.42220616
000230 1c 7c 56 3f 36 ec a0 3f d8 23 dc be 27 a6 91 bd
       0.83783126 1.2572086 -0.42996097 -0.07111769
000240 09 32 84 3b 5b 3f 32 be f7 e6 81 bd a5 4e 12 3f
       0.004034285 -0.1740698 -0.06342881 0.5715125
000250 ed ef b5 be 56 88 ab bd 48 8b 3b bf 08 98 e8 3e
       -0.3553461 -0.083756134 -0.732594 0.4542849
000260 cc 6e 7e 3b f2 1c 36 3e db 83 8e bf 9d 06 11 bf
       0.0038823364 0.1778448 -1.1133989 -0.56650716
000270 98 a5 ed be a3 f2 01 3d 2b 2e 87 be c1 7b 6c be
       -0.464154 0.031725537 -0.2640241 -0.23094083
000280 38 3e ab 3c c2 02 b4 bc c6 1b 9b be a0 be b5 bc
       0.020903692 -0.021973971 -0.30294627 -0.022185624
000290 3d d9 a9 3d 65 5b 9f 3d c5 03 33 bf a5 16 cc bd
       0.08293388 0.07781104 -0.69927627 -0.099652566
0002a0 b9 88 af be 9b 65 02 bd 3b 67 41 3d aa d7 cd be
       -0.34284 -0.03183518 0.04721759 -0.402036
0002b0 17 cc 24 be 14 ae fd 3e 22 e4 87 be 22 fc 9d be
       -0.16093479 0.49546874 -0.2654124 -0.30856425
0002c0 54 c5 56 bf 45 23 0f 3d 9e fb ca 3e 02 50 9e be
       -0.8389485 0.034945745 0.39645094 -0.30920416
0002d0 e9 d9 0e bf 8a 28 92 3e 88 d7 90 3e 4a 64 60 bf
       -0.55801255 0.28546554 0.28289437 -0.8765303
0002e0 95 46 5b be d5 0a 79 3f 36 40 3d 3e b5 da 33 3e
       -0.21413644 0.97282153 0.18481526 0.17563899
0002f0 55 21 8e be 81 97 14 3e af 86 52 be 08 c8 5c bf
       -0.27759805 0.14510919 -0.2055919 -0.86242723
000300 41 0b 6b bd 80 87 2a bf 52 9e 74 be 56 c3 ff bd
       -0.05738378 -0.66613007 -0.2388852 -0.12488429
000310 4d 11 e2 3d 9e e8 82 3c e9 1f d0 3e fb a5 f0 3e
       0.11038456 0.015980061 0.40649346 0.47001633
000320 92 8e 27 3f d1 97 8e be 58 de 83 bd 12 19 b9 3e
       0.6545192 -0.27850202 -0.06438893 0.3615194
000330 9b f0 e3 bd 9d 52 83 bf 3d dd 96 3e 0b da 62 3d
       -0.11129876 -1.0259587 0.29465666 0.055383723
000340 b3 cb 59 3d cc 46 ba 3d ad 41 94 3e 71 28 43 3e
       0.05317278 0.09095535 0.28956357 0.19058396
000350 b0 3e d6 3d 29 ff 86 3e 58 f3 2d 3f 1c 93 27 bf
       0.104611754 0.26366547 0.6794944 -0.65458846
000360 b0 2b 96 bf b2 78 37 3f a2 e6 34 be c2 fb 02 3e
       -1.1732082 0.7166854 -0.17666104 0.1279135
000370 89 98 c8 be 73 18 07 3e 8e f3 ad 3d 84 75 41 3e
       -0.39178875 0.1319292 0.0849372 0.18892485
000380 5f cf 08 3f 30 3d bb be 68 90 6e 3f 95 ac c3 be
       0.53441423 -0.3657012 0.93189096 -0.38217607
000390 14 6c a1 bd cc 0b 38 bf 3c e0 47 3f 33 0d f2 bf
       -0.078819424 -0.71893 0.7807653 -1.8910278
0003a0 ce 4d 96 be 68 d1 bb 3e 7d 5c bd be 4b 82 ce 3d
       -0.29356235 0.36683202 -0.36984625 0.10083445
0003b0 8d 50 6b be 19 dc 94 3d aa f0 72 bf 39 0b 81 bd
       -0.22979946 0.07268543 -0.94898474 -0.06300969
0003c0 b3 3b 5c 3c da 91 78 3e e0 c4 14 bf 5c af 07 bf
       0.013441968 0.24274388 -0.5811291 -0.5300195
0003d0 3c 11 ad bd 21 f7 90 bd 33 40 b1 be e3 23 dd 3e
       -0.08450553 -0.07078386 -0.34619293 0.43191442
0003e0 d7 1a d8 be cf 9e 62 bf 2b b6 d9 bd a3 96 39 be
       -0.42207977 -0.8852357 -0.10630449 -0.1812387
0003f0 47 09 8e bd 84 6a c2 be d1 2b 9b bd 35 35 13 3e
       -0.06935363 -0.3797189 -0.07576717 0.14375766

lstm.bias_ih_l1 f4 [256]
000000 1e 99 a1 be 06 8f 45 be 5e 2f a5 be 36 62 45 bf
       -0.31562132 -0.1929284 -0.322627 -0.77102983
000010 fd 92 0f 3e 5a 5c 18 3d 4c 47 d1 bd 7c 95 a6 be
       0.14020915 0.03719745 -0.10218677 -0.32535923
000020 c5 b5 94 3e 22 a0 39 bf e3 1e 8d be d2 3c 9a be
       0.2904493 -0.7250997 -0.27562627 -0.30124527
000030 01 7a 0f bf 43 87 ce bc 13 ea db bd e7 f4 94 be
       -0.5604554 -0.025210982 -0.107380055 -0.29093096
000040 da ec e6 be 09 b6 28 bc 39 bd df be 0d 99 3d bf
       -0.45102578 -0.010297307 -0.43699053 -0.7406166
000050 81 61 9d be 3b e4 55 be 10 47 02 3f a8 0b 06 be
       -0.30738452 -0.20887844 0.5088968 -0.13090384
000060 f1 f2 99 be f5 9c 79 bd 18 0b 8f be b7 eb 83 bf
       -0.30068162 -0.0609407 -0.2793815 -1.030631
000070 c6 d9 ba bd 62 9f 36 bf c4 d0 65 be a3 5c 06 bf
       -0.09123568 -0.7133695 -0.22442919 -0.524851
000080 4a 09 a6 be 2c e0 5f bd b1 ad 1e bf db 26 01 bf
       -0.32428962 -0.054657146 -0.6198378 -0.50449914
000090 6f 01 18 bf 19 bc ed be 6c e7 89 3c 55 20 c6 be
       -0.5937719 -0.4643257 0.016833983 -0.38696542
0000a0 3a 99 be be 3f ae 00 bf eb aa cd 3c 09 b1 f1 be
       -0.37226278 -0.5026588 0.025105914 -0.4720538
0000b0 0a 84 9a be f0 48 cc 3e 70 db b9 be 2f 5a 46 be
       -0.30178863 0.39899397 -0.3630023 -0.1937034
0000c0 e5 09 ba be 6a b4 9c be c7 9c 64 bf ef 1d 81 be
       -0.36335674 -0.30606395 -0.89301723 -0.2521815
0000d0 ad d5 b1 be 14 4c 07 bf f8 83 9f be 84 ad b3 be
       -0.34733334 -0.5285046 -0.31155372 -0.3509332
0000e0 cf 74 67 be 99 ed bd be 4e ce f7 be 45 75 32 be
       -0.22603153 -0.37095335 -0.48399585 -0.17427547
0000f0 34 8b d4 bd 97 3b b5 bd aa 62 e1 3d 8d 61 31 bf
       -0.103781134 -0.088492565 0.11005147 -0.69289476
000100 20 95 66 bf 53 4c 23 3e 1d b3 c3 bd cc 59 3e bf
       -0.90071297 0.15947084 -0.095556475 -0.7435577
000110 72 9d 10 bf c5 5d 5b bf 85 a5 5a bf 59 e8 8f bf
       -0.5649024 -0.85689956 -0.8540881 -1.1242782
000120 09 1a 58 bf 8e 2d 13 bf aa 5b a4 be a3 72 11 bf
       -0.84414726 -0.57491386 -0.32101184 -0.56815547
000130 e4 75 5b bf c7 4e 91 be 56 5f 27 bf c2 c9 63 3d
       -0.8572676 -0.28380415 -0.65379846 0.055612333
000140 12 77 71 bf 3a 99 e9 3d f2 33 4c bd 3c a6 06 3f
       -0.9432231 0.11406179 -0.049854226 0.52597404
000150 fe 59 40 bf 19 ab d3 bd 0c 10 73 bf ad ee 8b bf
       -0.7513732 -0.10335369 -0.9494636 -1.0932213
000160 e7 b7 38 bf 5f 4f 2c bf c0 e8 d5 be 6d 88 12 bf
       -0.7215561 -0.6730861 -0.41779137 -0.5723942
000170 23 a3 f8 be 11 76 11 3f 94 81 03 bf 19 ea 5b be
       -0.48561963 0.5682078 -0.51369596 -0.2147602
000180 67 04 7d be 65 bc 59 bf c3 a3 49 bf f5 71 3b bf
       -0.2470871 -0.8505309 -0.78765506 -0.7322076
000190 6f 95 c8 bd ca 97 36 bf 3c 6a 0c be 0f 58 3e bd
       -0.09794127 -0.7132536 -0.137124 -0.046470698
0001a0 55 df 78 be ea be 4e be 45 53 30 bf 47 20 f1 be
       -0.24303944 -0.20190015 -0.6887706 -0.47094938
0001b0 06 ec b6 be c2 48 35 bf 2f d9 99 be 94 f3 90 be
       -0.35726947 -0.70814145 -0.3004851 -0.28310835
0001c0 78 a2 20 3e 8c 3f 1d bf 00 ac 02 bf 15 08 1a bf
       0.15686977 -0.6142509 -0.510437 -0.6016858
0001d0 c5 e1 22 bf 6e c2 de be c6 e2 7f be ab 1c 2a bf
       -0.63625747 -0.43507713 -0.24988851 -0.66449994
0001e0 f6 da a4 be ee 99 e6 be 9e b7 b6 be 4c da 49 bf
       -0.32198304 -0.45039314 -0.35686964 -0.7884872
0001f0 bf be 2a bf ed 97 6c bf f8 45 46 bf d4 b3 d1 be
       -0.66697305 -0.9241932 -0.77450514 -0.4095751
000200 d3 d4 82 3c 66 76 8d bd fc 1c 95 bd 57 72 6e 3d
       0.015970623 -0.06907348 -0.07280919 0.05821451
000210 fb 5d ab 3d b8 b2 66 3e ec ac fb 3d a8 7c c1 bd
       0.08367535 0.22529113 0.122888416 -0.094476044
000220 f0 b4 e5 3d 1f 51 0b 3e 2a f4 f0 ba d6 14 69 be
       0.11216152 0.13605164 -0.0018383313 -0.22761855
000230 d6 95 b7 3e e4 ab de 3e 62 6b eb 3c 4d 40 b4 bc
       0.35856503 0.43490517 0.028737728 -0.022003317
000240 25 72 c2 bd a9 54 5e 3d 2c 0f 2f bd 7e 46 a5 3e
       -0.094944276 0.054279957 -0.04273908 0.32280344
000250 4a 03 83 be 81 06 00 3d a6 b7 51 3e cd 02 82 3d
       -0.25588447 0.031256203 0.20480213 0.063481905
000260 3a 93 7a 3e fe d8 3d be e4 f2 80 3c 85 1f 91 bc
       0.24470225 -0.18539807 0.01574082 -0.017715225
000270 91 5f 9e bd a8 32 20 be f1 15 1f 3e b3 5a 9c bc
       -0.077330716 -0.15644324 0.15535714 -0.019086218
000280 bf cc 8b 3d db 08 af bd 06 81 e7 bd b5 25 06 be
       0.068261616 -0.08546611 -0.11303906 -0.13100322
000290 96 30 1d 3d 75 a2 31 3e af 92 f6 3a bf 8f c7 3e
       0.038376413 0.17347129 0.0018812026 0.38976857
0002a0 a5 26 0f bd 28 fb 8a bd 77 bd 23 bc 59 2e ec 3d
       -0.034948964 -0.067861855 -0.009993902 0.115322776
0002b0 05 03 5e 3e 4f 90 80 bd 08 e8 71 3c f5 35 2a 3e
       0.2168084 -0.06277525 0.014764793 0.16622145
0002c0 9f cf 8e be 6c 4f a4 3e 69 5f 65 3e f8 09 06 be
       -0.27892777 0.32091844 0.22399677 -0.1308974
0002d0 6f d1 73 be 5a 5b 49 3d 5e 4d 0c 3e a5 d3 c2 ba
       -0.23810361 0.049159385 0.13701388 -0.00148641
0002e0 d7 2b 3e 3e e5 0c 9a 3e b6 36 b8 3d 93 75 05 3e
       0.18571411 0.30087963 0.0899481 0.13033132
0002f0 2a b1 7d bd b1 54 b8 3e 29 29 be 3d 16 01 a8 bd
       -0.061936535 0.36002114 0.092851944 -0.08203332
000300 e2 5c 40 be a3 e2 4a bd 69 a5 92 3d 3a de 09 bf
       -0.18785432 -0.049532544 0.07160456 -0.53854716
000310 c0 6b 45 3e db 33 f5 ba 2d 18 0d be 48 c9 fe bd
       0.19279385 -0.0018707471 -0.13778754 -0.12440735
000320 e9 cc c4 3e 4f f6 4b bf 0e bf f1 be d9 31 27 be
       0.38437584 -0.7967271 -0.47216076 -0.16327609
000330 10 78 01 bf 52 2c d0 be 71 bf ad bd cd 58 c5 be
       -0.50573826 -0.40658814 -0.0848378 -0.38544312
000340 8b bb 49 be eb 60 85 3e f1 17 5f be da 45 ac 3e
       -0.19700448 0.26050505 -0.21786477 0.33647043
000350 c4 46 16 be 31 cf ae be a2 50 0f 3f bb 60 8d 3d
       -0.14675432 -0.3414245 0.5598241 0.069032155
000360 ba 0c 86 be 48 50 18 be 71 93 c8 be c4 11 78 bf
       -0.26181585 -0.14874375 -0.3917499 -0.9690211
000370 31 5c 49 be e0 c9 e5 3d 10 b1 09 3c fb 3a 10 bf
       -0.19664074 0.11220145 0.008404031 -0.5634
000380 c3 93 13 bf b5 41 ba be 27 75 23 bf a2 64 c3 be
       -0.5764734 -0.36378255 -0.63850635 -0.38162714
000390 ad 56 d5 be f0 e3 c9 be d8 58 0e bd 56 52 c9 be
       -0.4166769 -0.39431715 -0.034752697 -0.3932063
0003a0 2c 0e 8a be 1c 27 08 bf 50 91 a3 bd 53 cf e3 be
       -0.26963937 -0.53184676 -0.079867005 -0.44494113
0003b0 f4 46 ba be 2d 10 09 3f 7a 76 f2 be a4 c3 e4 bd
       -0.36382258 0.5354031 -0.47356015 -0.11170128
0003c0 b8 6a 8e be 37 17 b1 be c9 d7 28 bf 8d 43 72 be
       -0.27815795 -0.34588024 -0.6595426 -0.23658581
0003d0 a9 cb 60 be 40 ff a1 be a8 68 80 be 69 11 13 bf
       -0.2195269 -0.31640053 -0.25079846 -0.5744844
0003e0 d3 df 97 be e0 36 ab 3c 35 f3 83 be 40 59 a6 be
       -0.29662952 0.02090019 -0.2577149 -0.32489967
0003f0 cc 24 d4 3d 6b 0f 40 3d 80 70 2f ba dd cd 6a bf
       0.10358581 0.046889704 -0.0006692484 -0.9172037
